LunarLander/checkpoint.pth (torch, 21783 bytes, 6 tensors)

fc1.weight f4 [64, 8]
00000000: 1b25 123e bd8d d2be deaf 6abf ced8 f0be
00000010: 1bcf c13e 2a55 f83e 2e85 733e 72e7 bb3e
00000020: 9a06 32bf ac38 f9bd 6c53 f8be 9ff5 19bf
00000030: df94 fcbd c2e4 b2be 0ebe 2bbe aaf1 bb3d
00000040: 7c6d cdbe b7a7 fbbd 71bf dc3e 7f4a b73f
00000050: cd11 903e a311 b03f 2462 c03d 5c7a d23e
00000060: 7af8 c63d 293d d8bd b1d9 053f 4134 fb3e
00000070: 8e3d 81bf 26e9 c9be abe1 f03d 93d0 bc3e
00000080: 9139 c9be 999d 65bf 9854 4cbf 5501 58bf
00000090: 4d89 af3e ba6b 233f 9c1f 8d3e 6c15 2f3e
000000a0: 206f c2bc 9034 b4be 4fb7 483e cc71 44be
000000b0: 21be b5be 1205 dfbe c27d 983e 9fbf 5f3e
000000c0: f59b c5be 2475 1bc0 009d be3e 65f9 94be
000000d0: c168 233f 0d0a 74be d759 be3e 7d5d 09be
000000e0: 911e 17be b012 50bf 1c05 15bf ff9f 1fbf
000000f0: 2cf1 753e 6881 243e 6096 ca3d 6d7d 773e
00000100: 7c65 ab3c 7d4a 913f a2e3 303e 6b7b cebe
00000110: a0c6 8d3e 6ba4 6abe 883e 82be b029 98be
00000120: 8cec eebc c905 353e 7f3a 4a3e baeb 80bd
00000130: 5371 22bf fee6 fdbe 20d8 3cbf f6c7 4fbf
00000140: 0636 5bbe 8a1c 413f 7562 dc3e 9024 03c0
00000150: 6cbe 27be e72c 15bc cd5c e53d 9e50 8abe
00000160: b1d2 9ebe 54a5 b5be 6db5 33bf e04d d3be
00000170: ca4b 893e 4ecd 96bd 7e95 15bf f5ef d1be
00000180: db27 bcbd bb81 25bf 1df7 1dbf c7a1 56bf
00000190: b569 433f 38f8 e23c df28 cc3d 88ef bebe
000001a0: f01a 31bf 982b 24bf ae62 9ebf 4b60 9dbe
000001b0: a087 453f af1d dd3d 09d5 5dbd 9c0c bb3e
000001c0: 2e93 073d 11cc fabc 38e7 afbe b884 bebf
000001d0: 3b72 dfbf 2f85 db3c 407c 993d 2ce0 453e
000001e0: 2e07 433e 4220 013d f8e5 383e 2721 2abe
000001f0: ba90 44bf 1f90 47bf 61f0 27bf 8a1b 023f
00000200: 073d b73d 7c77 8abe 4138 173f 722b 60bd
00000210: d183 58bf a3fd 0fbe 18af 963e 5671 31be
00000220: ffa1 a2be dcd7 363e 420f 103e ac7c 113f
00000230: 2cfa 7abd a7e7 803f 9365 293f 9400 82bf
00000240: 7e94 2fbe 0a59 22be ee4b c7be 1898 6d3e
00000250: 1adc 04bf 0927 c7be 8f57 bdbe 1443 71bc
00000260: 5ad9 debe 97a7 323f 7aad df3e 724e 80bf
00000270: 0285 213f fdf6 08bf 0815 943e af9e 9c3d
00000280: 7a29 123d 35a1 133c 8a83 e6bf 2f0b b0bf
00000290: 7310 82bd 96c4 cd3e 42a1 9ebe f93e fe3e
000002a0: f766 f3bd e395 f2be da19 723d c91e 76bf
000002b0: 182c f63e e436 6c3c bacd 49bd 042b f53e
000002c0: 4e3c 783e f0ae 8dbf 022e 9a3f f776 4abf
000002d0: 6c19 52bf b093 47be 189d 683e 2827 3d3e
000002e0: 6df4 5d3f c807 62bf c9dc 8e3e d866 653f
000002f0: 4efe c0be dc72 d03d df53 9b3e 52a0 923e
00000300: b5b6 47bf 44de 8dbe f84f 80bf 5fa6 59bf
00000310: 7e5b 823c 959e 143e 1e79 20bd 3003 5abe
00000320: 8d8b d9bd 60da 9cbe ba1f 1fbf ae27 dcbe
00000330: dc6e 043e 7758 df3e e95c 273e 9f45 123f
00000340: 58a2 8e3d 77c1 aebe bc3a fc3e 590d 2fbf
00000350: 2e97 02bf bfef 0dbe e34d a8bd 1987 8b3c
00000360: 9833 353e d417 66bf 2d36 833f 9503 2cbf
00000370: e6dd cabe 8e2c 423f f59a 3a3e 63e6 cb3d
00000380: 58f4 aabf 39a0 423f e5d0 aabf 1c92 00be
00000390: 5fe6 e6bd feb7 713e c5af edbd 2c65 0c3e
000003a0: dd19 a63d d03a 583f 2aef 813f 9da6 1bc0
000003b0: cc84 2e3f e403 dbbd 71e6 08be 6dc5 81bf
000003c0: 395b a5bd fa83 0b3d 7217 75be 56bd 77bd
000003d0: 2b77 f2be bed7 68bf fb96 9f3e ecdd 15be
000003e0: fdaf e2bd 8988 f13d f73c 9fbe f006 13be
000003f0: a21e 8abd fdf7 473f 9530 f23d db30 38bf
0.14271967 -0.41123763 -0.916746 -0.4704041 0.3785332 0.48502475 0.23781273 0.36700016
-0.69541323 -0.121690124 -0.48501146 -0.60140413 -0.123330824 -0.34940153 -0.16771719 0.09176953
-0.40122592 -0.122878484 0.43114808 1.4319609 0.2813858 1.3755382 0.09393719 0.41108978
0.09715362 -0.105585404 0.52285296 0.49063304 -1.009691 -0.3943569 0.11761793 0.3687788
-0.39301732 -0.896936 -0.7981658 -0.8437703 0.3428444 0.6383625 0.2756318 0.17098016
-0.02373463 -0.35196352 0.19601177 -0.19184035 -0.3549662 -0.43558556 0.29783446 0.21850441
-0.38595548 -2.4290247 0.37229156 -0.29096523 0.63831717 -0.23831959 0.37177917 -0.13414569
-0.14757754 -0.81278515 -0.5821092 -0.6235351 0.24017781 0.1606499 0.09891963 0.2416894
0.020922415 1.1350857 0.17274335 -0.40328535 0.276906 -0.22914283 -0.25438333 -0.29719305
-0.029165529 0.17677988 0.19748877 -0.06294961 -0.6345417 -0.49590296 -0.7376728 -0.8116449
-0.21407327 0.7543417 0.43043867 -2.0491066 -0.16381234 -0.009104944 0.11199341 -0.2701463
-0.3102012 -0.35477698 -0.7019871 -0.4127035 0.26815635 -0.073633775 -0.5843123 -0.41003385
-0.09187289 -0.6465108 -0.6170519 -0.838406 0.7633317 0.02770625 0.09968733 -0.37292123
-0.6918173 -0.6412902 -1.2373865 -0.30737528 0.7716007 0.10796677 -0.054158244 0.36533058
0.033099346 -0.030614885 -0.34356093 -1.4884253 -1.7456735 0.026796905 0.07494402 0.19323796
0.19045708 0.031524904 0.18056476 -0.16614209 -0.76783335 -0.77954286 -0.65601164 0.5082327
0.08947187 -0.27044284 0.5907021 -0.054728933 -0.84576136 -0.14061598 0.2943046 -0.1732839
-0.31764218 0.17855781 0.1406832 0.5683086 -0.06127374 1.0070695 0.66170615 -1.0156426
-0.17146489 -0.15854278 -0.38925117 0.2320255 -0.5189835 -0.3889697 -0.36980864 -0.014725465
-0.435252 0.6978697 0.4368704 -1.002394 0.6309358 -0.53501874 0.28922296 0.07647454
0.035684086 0.009010603 -1.8008893 -1.3753413 -0.06350794 0.40189046 -0.30982405 0.4965742
-0.11884873 -0.4737998 0.059106685 -0.96140724 0.48080516 0.014417384 -0.04926846 0.4788438
0.24241754 -1.1069012 1.204529 -0.79087776 -0.8207004 -0.19489932 0.22716177 0.18471968
0.8670109 -0.88293123 0.2790282 0.8961005 -0.3769402 0.10178158 0.30337426 0.2863794
-0.78013164 -0.27708638 -1.0024405 -0.8501949 0.015912767 0.14513619 -0.039178006 -0.21290278
-0.1062232 -0.30635357 -0.62157786 -0.42999023 0.12932914 0.4362218 0.16344036 0.57137483
0.06964558 -0.34131977 0.4926356 -0.6837974 -0.5101193 -0.13860987 -0.08217981 0.017032193
0.17695463 -0.8988011 1.0250908 -0.67192966 -0.3962242 0.75849235 0.18223174 0.09956052
-1.3355818 0.7602573 -1.3345 -0.12555736 -0.112744085 0.23605344 -0.11605791 0.13710469
0.08110402 0.8446474 1.0151112 -2.4320443 0.6817138 -0.106941015 -0.13369156 -1.0138375
-0.0807404 0.03406141 -0.23934725 -0.0604833 -0.47356543 -0.90954196 0.31169876 -0.14635438
-0.11068723 0.1179362 -0.311012 -0.14358115 -0.06744124 0.78112775 0.118256725 -0.7194955

fc1.bias f4 [64]
00000000: e290 99be caab 34be 403c b5be 27d2 6cbe
00000010: 8f83 1ebe 3b28 9b3d 58f3 f93e 8620 6a3e
00000020: 5a85 5e3f 65dd d43d cf84 893e 3eca 923e
00000030: 5523 30bf d10f b6be 0e5e f5bb ea65 293e
00000040: 6ffb e9bd c28c fdbe cf6b 073f d13c 3e3f
00000050: d853 27bc 2c19 9ebd e80e debe 009c 8dbe
00000060: 3ff2 7c3c 7bf8 7fbe b71f 3cbe 0d2c a03e
00000070: c8c1 2c3d 0a93 5f3e a133 2abd f8da 0cbe
00000080: 9192 b6be bc71 2b3f 37f4 383d 5092 923e
00000090: 4660 563e 0e86 203e 97be abbe 8a0b 09bf
000000a0: acfe 513e 30cf e0be 8794 bc3e ff2c 3b3b
000000b0: dcb3 323e 7ab8 fe3d 437d df3e a2a5 523e
000000c0: fa5f bf3e 00ed a5be 588c e5bd 439a 383f
000000d0: 34c4 babe 65b7 783e e0f7 f7bd 2ad1 9d3e
000000e0: 4598 10bd 19f5 d93d 0b71 c6bc 7d5c c23e
000000f0: af89 a1be c49b e2bd 777c 0b3e a7ce 653e
-0.2999335 -0.17643657 -0.3539753 -0.23127042 -0.15479873 0.07576033 0.4881847 0.22863969
0.8692223 0.1039379 0.26859137 0.28669924 -0.6880391 -0.35558942 -0.007488019 0.16542783
-0.1142491 -0.49521452 0.5289888 0.7431155 -0.010212861 -0.07719645 -0.43370748 -0.2765808
0.015438615 -0.24997132 -0.18371473 0.31283608 0.04217699 0.21833435 -0.041553143 -0.13755405
-0.35658696 0.6697042 0.045154776 0.28627253 0.20935163 0.15676138 -0.33543846 -0.5353323
0.20507306 -0.43908072 0.36832067 0.0028560755 0.17451423 0.1243753 0.43650255 0.20570996
0.37377912 -0.3240738 -0.11208409 0.72110385 -0.36477816 0.2428871 -0.12107825 0.30823642
-0.035301466 0.10642452 -0.024223825 0.37961188 -0.31550357 -0.11064866 0.13621698 0.22442113

fc2.weight f4 [64, 64]
00000000: 090f abbc 7ff0 c6bd fd6b 8a3e 80ff dc3e
00000010: 2e49 22be dcbe ddbc 2028 28bf 3ca6 cf3c
00000020: 5352 083e 6de2 e43d 7cbe 1d3e ab51 8f3e
00000030: 98fa 4b3f caaa d73e 85f1 85be 7d90 d23e
00000040: a5b0 073f f978 2e3f 3eee 123e 80ad 2ebd
00000050: 557f 60bf a54e 793d c778 9e3f a434 e23e
00000060: 9a99 883e c788 493d 7f3d 8c3e 7600 083e
00000070: 35a1 843d a7de e4bd 4983 47bd a6ac b73e
00000080: 2bec fabc 10f4 e6bd dd84 fdbc 181e 483e
00000090: 3076 fb3e 87a2 513e 309d 353d 2216 283f
000000a0: 5d24 383e 8a72 0c3f ba83 ac3e 3f89 43be
000000b0: 0310 923e eceb af3e 2820 cd3e 2b5a d5be
000000c0: 456f 4c3f 2db1 2b3e 0d90 a73c 27a4 63be
000000d0: 8103 eb3d 2251 89be 5a91 1f3f 6f75 be3d
000000e0: 6509 923e 3123 de3d 1bbd 30bd 344b 983d
000000f0: 4eb3 0f3e 6007 62be 59ef 63be a259 45be
00000100: 4272 2a3e 9b13 fe3d 498d fa3e 41a5 a33e
00000110: 1da3 d7bc e4e7 9a3e e950 02bf dd40 383e
00000120: 0cc3 39be 7114 923e 808b 1e3e 2915 af3e
00000130: abd6 5f3f ecef 123f 73fd 04bf 7948 033f
00000140: 3003 de3e eb80 473f e0e2 ffbc c8b9 cf3c
00000150: f786 24bf 9ab3 92bd 4ca1 733f 2aab 123e
00000160: ab4a a33e 79a4 c33e edca 1f3f 06bc 983c
00000170: 0a62 8a3e 9e66 143e 73ab efbc 2415 e63e
00000180: d485 373e 489b 9e3d 03df 763e 59a0 953e
00000190: 5fa8 b93e c832 433e ca4f af3d d371 1d3f
000001a0: 3d0e 8e3e 783b 3c3f 5ab7 873e 8913 27bf
000001b0: 04b1 0b3f 5407 a43e a887 dc3e 0197 58be
000001c0: 8da9 003f 5905 f33e 7827 5b3e 82dd 7bbe
000001d0: 3e12 c33e 1dd1 e2bb bc7c 0d3f b04f 6f3d
000001e0: e7f0 3c3e 4574 5d3b 0959 52be 1c19 ab3d
000001f0: ff8e 0f3f 7f69 1e3c 9c2a 01bf 8b5b 04bf
00000200: 1e28 0f3e 6da9 4a3e 0d70 b23e 64ba da3e
00000210: e6a4 f43d 71b4 8e3e 9b6e d5be 95d8 a03d
00000220: 41c9 0cbf bc34 773d 7a56 5b3e 9d98 0e3f
00000230: e446 473f 9b13 2b3f 7487 163d 719a 203f
00000240: 5390 323f 3e4f ee3e 187f c8bc 73ab 05be
00000250: 9959 b63d 12ef 983d 0f1e 8a3f 857e e73d
00000260: 7654 063f fe1a 0b3e 97b5 163f f9e0 543d
00000270: 3e38 b23e 0c2b 0b3e e996 ebbd df30 3f3f
00000280: 252a 293e de40 b3bd 1857 f33e 6da6 b4bb
00000290: 1e32 a13e f8ac 9c3e ccf7 ca3d 7ef9 c73e
000002a0: e5b8 813d 01f1 6f3f 2bc7 643e 68ab 8bbe
000002b0: 9ff2 b2be ba44 e03e f700 723e dbf5 14bd
000002c0: b608 813e d8d7 0f3f d003 813d 4ee9 85be
000002d0: 03c8 7a3e 8426 5bbd 2712 0a3f 4c31 793e
000002e0: ff10 e33c 6df2 c43e 6646 0f3e 7baa 8a3d
000002f0: 4e72 2c3f 6e1c 823b 83d0 cdbd 4029 5abc
00000300: c9b4 1fbd a3ef 0d3e 774a c83e 4824 e93d
00000310: d4e1 c03d af80 2c3e 6dbd a8be 8cdc 673c
00000320: effc af3d 38b1 12be c26e b03e 8a2f a23c
00000330: 3387 fc3e 21b4 4b3f 3b83 94be 5b53 073f
00000340: a1d2 0c3f 0003 d33e 92ab 033e 5e23 37be
00000350: c497 4dbf 9a76 9a3e 18f8 513f 345e 563e
00000360: 4b72 323f 25ed 113e 723b 073f e770 c3bc
00000370: 0c18 fc3e 5699 37be b672 5a3d d734 b03d
00000380: 1c22 453e 6e69 bfbe 165c be3e 96b0 ca3d
00000390: 670a 1e3e ccf7 663e 0690 fe3d 3a05 133f
000003a0: 982d 3e3e a79d 443f 7b9a 4f3d dd03 b4be
000003b0: 9fbd a43e 1e80 b33c 77dd 213f 4a8c 81bd
000003c0: 6b5f 1d3e 7600 403f 7de5 083d 5b3e edbc
000003d0: 721e 103f 9bd1 babe 9266 203f 4ebc 803e
000003e0: d330 a63e 910c 4cbb 06d3 e2bd 12c0 803d
000003f0: e525 ee3e 580a b23d 5098 a8bd bc73 9bbe
-0.020881193 -0.0971384 0.27035514 0.4316368 -0.15848228 -0.027068548 -0.65686226 0.025347821
0.13312654 0.11176 0.15404695 0.27991995 0.7967925 0.4212249 -0.26160827 0.4112586
0.53003913 0.6815334 0.14348695 -0.04264593 -0.87694293 0.060866017 1.2380608 0.44180787
0.2667969 0.049202707 0.27390668 0.13281426 0.0647606 -0.1117528 -0.048709188 0.35873908
-0.030630192 -0.1127702 -0.030947143 0.1954273 0.49113607 0.20472156 0.04433936 0.6565877
0.17982621 0.5486227 0.3369425 -0.19095324 0.2852784 0.34359682 0.40063596 -0.41670355
0.79857284 0.16766806 0.020454431 -0.22230588 0.11475278 -0.26819712 0.62331164 0.092997424
0.28522792 0.10846556 -0.043149095 0.07436219 0.14033243 -0.22073126 -0.22259273 -0.19272473
0.16645148 0.12406083 0.48935917 0.31962016 -0.026322896 0.30255044 -0.5090471 0.17993493
-0.1814081 0.2853122 0.15482903 0.3419583 0.8743693 0.5739734 -0.5194923 0.5128246
0.43361807 0.7793109 -0.031236112 0.025357142 -0.6426844 -0.071631625 0.95167994 0.14323106
0.31892905 0.3821142 0.62419015 0.018644344 0.27027923 0.1449227 -0.029256558 0.44938004
0.17922145 0.07744461 0.2410851 0.29223898 0.3626127 0.1906234 0.085601404 0.61501807
0.27745238 0.7352824 0.26507074 -0.65264183 0.5456698 0.3203684 0.43072248 -0.21151353
0.50258714 0.47465017 0.21401775 -0.24596217 0.38099855 -0.006921901 0.55268455 0.058425605
0.18451272 0.0033791226 -0.20541777 0.083543986 0.5607757 0.009668707 -0.5045564 -0.51702183
0.13980147 0.19791193 0.34851113 0.4272033 0.119455144 0.2787204 -0.41685948 0.0785381
-0.5499459 0.060353026 0.21419707 0.5570162 0.77842546 0.6682679 0.036750272 0.6273566
0.6975147 0.46544832 -0.024474666 -0.13053684 0.08903808 0.07467474 1.0790423 0.113034286
0.5247263 0.13584515 0.58870834 0.051972363 0.34808534 0.1359064 -0.11503393 0.74683946
0.16519983 -0.08752607 0.47527385 -0.0055130036 0.3148355 0.30600715 0.09910545 0.39057535
0.06334094 0.9372712 0.22341602 -0.2727921 -0.3495073 0.43802434 0.2363318 -0.03636728
0.25201958 0.56188726 0.06299555 -0.2615456 0.24490361 -0.05350353 0.5393395 0.24335212
0.027718065 0.38466206 0.13991699 0.06770798 0.67361915 0.0039706742 -0.10049536 -0.013315499
-0.03899077 0.13860945 0.39119312 0.11383873 0.09418073 0.16845964 -0.3295702 0.014151704
0.08593165 -0.14325416 0.34459502 0.019798059 0.493219 0.7957173 -0.2900637 0.52861565
0.55008894 0.41213226 0.12858418 -0.17884585 -0.803097 0.3016861 0.82019186 0.20934373
0.6970565 0.1425062 0.5282508 -0.023857547 0.49237096 -0.17929587 0.053332053 0.086038284
0.19251293 -0.37385124 0.3717963 0.09896962 0.15433656 0.22555465 0.12429814 0.5742985
0.1857208 0.7680306 0.050684433 -0.35159197 0.3217592 0.021911677 0.63228554 -0.06325586
0.1536843 0.75000703 0.033421982 -0.028960397 0.56296456 -0.3648804 0.6265651 0.25143665
0.32459125 -0.003113542 -0.11075406 0.062866345 0.46513286 0.08693379 -0.08232176 -0.30361736

fc2.bias f4 [64]
00000000: ee43 d8bd fef5 99be 5906 fbbe 8bd3 a3bd
00000010: b14d 103d 70b9 92be b8d2 a33e e121 1abd
00000020: c0ae a93e 6758 cfbd abda 6abe a455 8bbe
00000030: 2faa a0be 139f 93be f5b1 263f e1a9 7b3f
00000040: 2376 85bc c576 8e3d d07a 39be 937e 5bbe
00000050: f986 49be 3e92 6abd 788f 90be f0db 543f
00000060: ce29 8abe ac72 aa3d 02c8 84be 1c34 90be
00000070: 9e03 a23c 2d5e 9fbe 6412 9b3d c67c d73e
00000080: d19a f2be b91f a03e dcb0 65be 7d59 f9bd
00000090: 617f 94bd 227b f1bd 3490 4cbe 9561 24be
000000a0: 8fd0 943c 1c1e 483e 740e 81be 7d50 be3e
000000b0: e7a1 26be 7566 973d e0ee e7bd ab68 f53d
000000c0: b177 7cbe 363a a0be cb4c 413d b720 afbe
000000d0: 70ea 123e 1c75 efbd a639 19bc 1b25 0fbe
000000e0: bd41 013e 431f 343f ac24 dabe c0d8 29be
000000f0: 0a62 67be 9b18 88be e7ad 103f b412 3bbe
-0.105598316 -0.3007049 -0.4902828 -0.07999333 0.035230342 -0.28657103 0.31996703 -0.037629966
0.33141136 -0.10124283 -0.22934978 -0.27213776 -0.3137984 -0.28832301 0.6511529 0.9830609
-0.016291684 0.06956247 -0.18113256 -0.21435003 -0.19680394 -0.057268374 -0.28234458 0.831481
-0.2698502 0.08322653 -0.25933844 -0.28164756 0.019777115 -0.31126538 0.07571867 0.42087382
-0.4738374 0.31274202 -0.22430748 -0.12175272 -0.07250858 -0.11791064 -0.19976884 -0.1605285
0.018165855 0.19542736 -0.2520634 0.37170783 -0.16272698 0.07392589 -0.11324859 0.119828545
-0.24655034 -0.3129441 0.047192376 -0.34204647 0.14347243 -0.11692259 -0.009352123 -0.13978998
0.12622733 0.703602 -0.42606103 -0.1658659 -0.22595993 -0.26581272 0.56515354 -0.18268853

fc3.weight f4 [4, 64]
00000000: 3ac8 36bf ef33 ffbe 63d3 c7be b6d9 9bbe
00000010: 591f 3dbf c330 bdbe 6e49 e63f 8fa9 90be
00000020: 2538 0f3f 68ed 0abf 928d a9be 3a64 b7be
00000030: ed51 01bf e4de 9ebe cca5 fd3f 6fe3 f13f
00000040: 5ca8 6e3d 419b ffbe 3f04 32bf f659 92be
00000050: ec85 b6be 8287 873d 01bf 9cbe 003a 8abf
00000060: 0a3e b0be 478e c33f 87e7 86be 16df e5be
00000070: faec 32bf f8de fcbe a305 e2be 6c94 cb3f
00000080: b33a 83bf b046 9d3e d6fc 89be fbbc bbbd
00000090: 6728 b63c 60a4 8bbe 436b 8abe da7f 2abf
000000a0: 8973 b23c 9cdb 603f 2e63 85be f05f 213e
000000b0: e39b e63e ccf3 05bd daa0 983d 2ee6 e7bf
000000c0: 4ea1 efbe 7c4c 07bf 39e3 28be f6e5 8dbe
000000d0: 12db 69bf ea20 a6be a6e7 2dbe 512e 473d
000000e0: 441c aebc b911 e23f 949f 4ebf d9d5 94be
000000f0: 23d6 63bf e27d a2be edd3 4c40 2742 d3be
00000100: 97c1 2abe e392 00bf 9ebc 9abe fa6e a5be
00000110: be6d 0abf 1ccb c3be 76eb cf3f 9c33 7a3e
00000120: 954c 053f e8a4 55bf ae5f 00bf 2423 03bf
00000130: fe34 b6be 1a3a d5be 30c0 e23f 834b df3f
00000140: 8c0d 3b3c 81a5 ddbd 42a8 84be bdc8 f9be
00000150: 8480 92be 02d2 dc3d e379 01bf b14a 94bf
00000160: 41e8 dcbe 195d 803f 7607 acbe 7854 d9be
00000170: bd12 6abf 04ce 12bf 583d 4dbf 09ba 0940
00000180: a432 7ebf 5f61 38bc aa7d a5be cc87 ff3d
00000190: aa70 c4bd c69b 01bf 4d7c 5bbe 7d08 bebc
000001a0: 7174 e9bd a61a 8c3f 89cb f7be efae c73e
000001b0: de25 a9be cf5b 37bc ccfa d03d 2e88 cebf
000001c0: 8d14 ccbe 5b02 0fbf dc62 eebe 0d8d 5cbe
000001d0: 983a ccbf a3e1 84be 462f a5be 7dc0 83bb
000001e0: b531 63bf e5a9 e93f bea3 f5bc 82d9 00bf
000001f0: 43f0 f9be 0fd3 6cbe 2e33 2340 6455 d3be
00000200: af15 dabe d640 29bf efd1 14bf 30a1 13be
00000210: ceea 11bd 8fad 69be 039f ed3f 04c9 053f
00000220: 2062 b23f a474 06bf 862d 84be 54e9 e9be
00000230: 1cb0 9abe 8bed d8be 1a15 b53f 61c2 f13f
00000240: ffc6 4a3c d259 bcbf e04b 15bf fa13 efbe
00000250: 7f3d 79bd 8339 523d c25a 26bf acfb 9bbf
00000260: c0f1 b9be f188 1640 7774 24bf cef0 f3be
00000270: b3ce 15bf 020d a3be a3da 44bf c18d c73f
00000280: dae2 f2be 907f 893f a50d 92be 9032 4fbd
00000290: 6de9 403d 34a5 e8be b5cf 8abe 7527 82be
000002a0: a10e 9cbd 4ec8 5cbf d34a 1fbf 5439 983e
000002b0: f4c4 983f c0fa 4dbb ae6b 55bd ce10 a1bf
000002c0: b291 a5be 9c14 6cbf 0536 c9be a5ff 16bf
000002d0: 60bb 54bf 4c7d 53bf 5ca8 e5bc 5ed8 123d
000002e0: 5b9f 393f 111e 0f3f 2b7f 983d 5a43 6fbe
000002f0: 712b 11be 7efa 9fbe 9465 2940 2bd8 00bf
00000300: b6a4 0dbf a406 d1be 64fc 9ebe 2b4f 01bf
00000310: 83fd a3be a515 acbe 75f6 1840 2996 f5be
00000320: 3a0e 843f f9eb f6be 38a0 b0be 7939 93be
00000330: c6f2 fabe b5da e2be 6ced f93f b37c f73f
00000340: 979c 2cbc 75f4 9dbe 449d b7be 5ef0 cbbe
00000350: 10c3 c6be 40a3 d0bd d436 d8be bd8a a4be
00000360: 96ba b6be 2798 de3f 20ef f7be e81d e0be
00000370: dd83 86be a87d babe 1e01 f2bd 39dd 833f
00000380: 1c1a d9be 7d07 433f 6974 00bf a461 9bbd
00000390: f992 4c3d c013 05bf 0a3a 09bf 70af f8be
000003a0: cff0 c9bc d4ed 183f 6606 c7be ba70 d1be
000003b0: 4c3a 4c3f 882e bdbd 4044 0a3d 0f48 1cc0
000003c0: c0da c9be 2e7c a9be 57c5 12bf c145 dfbe
000003d0: 84d5 0bbf 9067 96be 2736 40bf 0f9d af3c
000003e0: d47c cf3e 1ad9 d53f 762c 7cbf 3d91 e5be
000003f0: edf8 b8be 3518 09bf 2b41 5340 7e8a c8be
-0.7139927 -0.4984431 -0.39028463 -0.30439538 -0.7387596 -0.36951265 1.7991159 -0.28254363
0.55945045 -0.54268503 -0.33115822 -0.35818654 -0.50515634 -0.31029427 1.9816222 1.8897532
0.05826603 -0.49923137 -0.6953773 -0.2858426 -0.3564905 0.06617643 -0.30614474 -1.079895
-0.34422332 1.5277795 -0.26348516 -0.44896764 -0.6989285 -0.49388862 -0.44144925 1.590467
-1.0252289 0.30717993 -0.2695071 -0.091669045 0.022236062 -0.27273846 -0.2703496 -0.66601336
0.021783607 0.878351 -0.2605223 0.15759254 0.45040807 -0.032703206 0.07452555 -1.811712
-0.46802753 -0.5285108 -0.16492929 -0.2771451 -0.913499 -0.32446986 -0.16982898 0.048628155
-0.021253712 1.7661659 -0.80712247 -0.29069403 -0.8899862 -0.31736666 3.200435 -0.41261408
-0.16675411 -0.5022413 -0.30222028 -0.3231123 -0.54073703 -0.38240898 1.6243732 0.2443375
0.5206998 -0.8345475 -0.50145996 -0.51225495 -0.35587305 -0.4164589 1.7714901 1.7444919
0.011416804 -0.10822583 -0.2590962 -0.48785964 -0.28613675 0.10782243 -0.5057661 -1.1585294
-0.43145946 1.0028411 -0.33599442 -0.42447257 -0.9143484 -0.57345605 -0.8017173 2.1519797
-0.9929602 -0.011253684 -0.32322437 0.12477073 -0.095918015 -0.50628316 -0.21434136 -0.023197407
-0.113991626 1.0945632 -0.48397473 0.3900065 -0.33036703 -0.0111913225 0.10204086 -1.6135309
-0.3985943 -0.5586297 -0.465598 -0.21538182 -1.5955381 -0.25953397 -0.3226263 -0.004020749
-0.8874772 1.8254973 -0.029985305 -0.5033189 -0.48816118 -0.23127387 2.5499988 -0.41276085
-0.42594668 -0.66114557 -0.58132833 -0.14416957 -0.035624318 -0.22820114 1.8564152 0.5225985
1.3936195 -0.5252173 -0.25815982 -0.45685828 -0.30212486 -0.4236873 1.4147065 1.8887445
0.012376546 -1.4714911 -0.583189 -0.46694928 -0.060849663 0.05132438 -0.64982235 -1.2186179
-0.36317253 2.3521082 -0.6424021 -0.47644657 -0.5851852 -0.31845862 -0.76896113 1.5590135
-0.474387 1.0742054 -0.28526035 -0.05058533 0.047097612 -0.4543854 -0.27111593 -0.25420728
-0.07619978 -0.8624314 -0.6222355 0.29731238 1.1935105 -0.0031429976 -0.052104644 -1.2583253
-0.3233772 -0.9221895 -0.39299026 -0.5898383 -0.8309841 -0.8261306 -0.028034382 0.035850875
0.7250878 0.5590525 0.0744613 -0.23365536 -0.14176728 -0.31245798 2.6468248 -0.50329846
-0.55329454 -0.4082538 -0.31051934 -0.50511426 -0.32029352 -0.33610263 2.3900425 -0.47966126
1.0316842 -0.48226908 -0.34497237 -0.28754786 -0.49013346 -0.44307485 1.952558 1.933493
-0.010535381 -0.30850568 -0.35862172 -0.39831823 -0.38820696 -0.101873875 -0.4222933 -0.321371
-0.3568923 1.7390183 -0.48424625 -0.43772817 -0.2627248 -0.36423993 -0.11816619 1.0301887
-0.42402732 0.761833 -0.5017763 -0.07586983 0.04994485 -0.5198326 -0.53604186 -0.48571348
-0.02465096 0.59737897 -0.3887207 -0.40906316 0.79776454 -0.09237391 0.033756495 -2.441898
-0.39424706 -0.33102554 -0.57332367 -0.43607906 -0.54622674 -0.29375887 -0.7508263 0.021437196
0.40524924 1.6706879 -0.9850534 -0.4483737 -0.36127415 -0.5355256 3.3008525 -0.3916816

fc3.bias f4 [4]
00000000: a685 923e 5ec4 673e 59eb 043f 1b13 52be
0.2861759 0.22633502 0.5192161 -0.205151
